model/model2.tflite (tflite, 949468 bytes, 16 tensors)

dense/bias f4 [15]
-0.026925191 -0.0021512355 -0.06293915 0.030696597 -0.046173275 -0.008298648 -0.016871357 0.036856763
0.11170644 0.013281521 -0.039898496 -0.043242548 0.0038554175 -0.0013213007 -0.06060571
00000000: 3892 dcbc befb 0cbb 3ee6 80bd 6e77 fb3c
00000010: 3020 3dbd 0df7 07bc cd35 8abc 1ef7 163d
00000020: 59c6 e43d bd9a 593c 9b6c 23bd 191f 31bd
00000030: 2cab 7c3b 7f2f adba b13d 78bd

std.constant4 f4 [512]
0.28101274 0.62452745 0.8220761 0.90474373 0.89573497 0.65975654 0.3283524 0.22046742
0.3504644 0.7059229 0.9072059 0.8464168 1.0173191 0.9108603 0.3116518 0.7089009
1.1250464 0.5219692 -0.4368485 0.26253513 1.2914894 -0.4592039 0.91126984 0.6855253
0.43704906 0.8673549 0.70924944 1.219658 1.1190625 0.64469403 1.4970279 0.74533314
1.405881 0.8211012 -0.57528484 0.95936984 1.0538636 0.9491046 -1.082 -0.23995453
-0.014355769 -1.1828722 -0.34191912 0.088591196 -0.08242066 0.6802411 0.3300767 0.89602363
-1.2024186 0.61252815 0.5851296 -1.1400326 0.8691365 -0.8366446 1.0401863 0.6642199
0.81724256 0.18448286 0.7782388 0.49681902 -0.44104832 0.7313531 0.8969922 1.2019732
0.45058912 0.42045742 0.07176239 1.0771441 0.53050405 1.5757341 -0.26751158 0.58566254
0.117939726 -0.37801778 0.28624618 0.7970183 1.008998 -0.40444553 1.4263473 0.3101804
0.96872705 0.9948406 1.2429901 0.8239216 0.21717252 0.23657873 0.59471506 0.34892482
0.6368048 0.90093005 0.67950195 1.1365154 0.660484 0.5905356 0.44511485 1.3908129
0.7962972 0.7727479 -1.0361809 -0.21844377 -0.5539775 0.23304701 0.47898224 1.193641
-0.25006413 -0.011030988 1.0578778 0.6998558 0.9730241 0.7635836 -1.1770475 0.31097266
0.61044496 0.1680301 0.5378055 -0.09596771 0.7470141 1.317982 1.1480799 0.36175102
0.6799645 1.3019177 0.24377719 1.3233947 0.734508 0.87695736 0.76805663 0.7510729
0.53491 0.8597149 -0.61058086 0.36831382 1.0939453 0.5608041 -0.5378248 0.9092321
0.9238852 0.15485854 -0.76716465 1.3763043 -1.3046324 0.80520165 0.7229427 0.52848417
0.28278407 0.2933515 -0.9648194 1.2901462 0.11810521 0.58784163 0.62503463 1.1655642
0.3211718 0.66197836 0.3957993 0.15581168 -0.19679959 0.94159764 0.75014544 0.89259326
0.47268352 0.54095864 0.16908076 0.81574684 0.5643449 0.72603387 1.0632005 0.016210852
0.46873036 1.0510163 0.20539634 0.10339735 0.6595101 -0.5878932 0.8973887 0.677091
0.5346864 0.92094827 0.11946268 -0.2701777 1.4199218 0.9382495 0.40240332 -0.0647725
0.016152404 0.6917526 0.7291695 0.48929003 0.3409798 0.67001015 0.7712086 0.9400703
-0.87967813 0.84866977 0.94866735 -0.04970331 0.0040580863 -0.05768073 -0.10165489 0.8578837
1.1465647 0.6175467 0.3571942 1.1785883 -0.9703054 0.6348296 -0.4521022 1.2888254
0.0024182724 -0.20268413 0.14188339 -0.17728868 0.36951396 0.7812324 0.64693356 -0.19927056
-0.6969571 0.6532927 1.0224241 -1.1319355 0.47837263 0.7981081 0.40148258 0.83515567
0.4469196 0.15663075 -0.2815024 -0.22004494 0.7829977 0.8230158 -0.24711 1.1016968
0.080370314 0.10825822 0.5737119 0.6014595 0.6064778 0.54459876 0.3168581 1.0936471
1.104954 0.9261986 0.22064269 0.80536246 0.30643278 -1.0263019 1.3330786 0.9473821
1.2634249 -0.49908486 0.09388279 -0.4877857 1.2050326 0.9338642 -0.47586986 0.39955482
00000000: e7e0 8f3e 08e1 1f3f 9473 523f 499d 673f
00000010: e34e 653f cee5 283f ce1d a83e 36c2 613e
00000020: 1270 b33e 5db7 343f a53e 683f c5ae 583f
00000030: 8337 823f 242e 693f d390 9f3e 887a 353f
00000040: 8501 903f c69f 053f 9baa dfbe 016b 863e
00000050: 864f a53f c61c ebbe fb48 693f 967e 2f3f
00000060: e5c4 df3e f90a 5e3f 5f91 353f c11d 9c3f
00000070: 713d 8f3f ab0a 253f 9c9e bf3f 27ce 3e3f
00000080: e9f3 b33f b033 523f de45 13bf 4399 753f
00000090: 01e5 863f 85f8 723f fa7e 8abf a4b6 75be
000000a0: 7634 6bbc 5b68 97bf 0610 afbe 4d6f b53d
000000b0: 2acc a8bd 4824 2e3f d0ff a83e ce61 653f
000000c0: dae8 99bf a5ce 1c3f 0ecb 153f 97ec 91bf
000000d0: bb7f 5e3f 572e 56bf d324 853f 510a 2a3f
000000e0: cf36 513f 13e9 3c3e a83a 473f 105f fe3e
000000f0: 16d1 e1be f539 3b3f 48a1 653f 42da 993f
00000100: 9eb3 e63e 3246 d73e 29f8 923d dcdf 893f
00000110: 1dcf 073f a8b1 c93f 47f7 88be fbed 153f
00000120: 628a f13d 8c8b c1be dc8e 923e 6409 4c3f
00000130: d926 813f 7c13 cfbe 8c92 b63f f7cf 9e3e
00000140: 7ffe 773f e0ad 7e3f 4d1a 9f3f 87ec 523f
00000150: 7962 5e3e b241 723e 3f3f 183f 46a6 b23e
00000160: a405 233f 5aa3 663f d7f3 2d3f 5679 913f
00000170: 7b15 293f 572d 173f 18e6 e33e 2806 b23f
00000180: 22da 4b3f ced2 453f 93a1 84bf b9af 5fbe
00000190: 78d1 0dbf e0a3 6e3e 293d f53e 3ac9 983f
000001a0: 6808 80be 51bb 34bc 8a68 873f c029 333f
000001b0: 1b18 793f 377a 433f 7ea9 96bf cf37 9f3e
000001c0: 1f46 1c3f 1510 2c3e 9fad 093f b88a c4bd
000001d0: 513c 3f3f a2b3 a83f 48f4 923f 6e37 b93e
000001e0: 2712 2e3f 3da5 a63f baa0 793e ff64 a93f
000001f0: b708 3c3f 4780 603f 5c9f 443f 5046 403f
00000200: ddef 083f 4716 5c3f 074f 1cbf a193 bc3e
00000210: 6606 8c3f dc90 0f3f e3ae 09bf 6fc3 683f
00000220: be83 6c3f 3d93 1e3e e764 44bf bd2a b03f
00000230: 32fe a6bf b221 4e3f c612 393f bd4a 073f
00000240: 13c9 903e 2b32 963e 67fe 76bf 8323 a53f
00000250: 25e1 f13d ca7c 163f 4502 203f 3531 953f
00000260: a170 a43e 6a77 293f 35a6 ca3e 198d 1f3e
00000270: d585 49be 8b0c 713f 8809 403f fe80 643f
00000280: 9303 f23e 447c 0a3f 8223 2d3e c9d4 503f
00000290: e878 103f 5bdd 393f f416 883f 9fcc 843c
000002a0: 6dfd ef3e b487 863f 6b53 523e fdc1 d33d
000002b0: a7d5 283f 2b80 16bf 44bb 653f d655 2d3f
000002c0: 35e1 083f 44c3 6b3f d9a8 f43d bb54 8abe
000002d0: ffbf b53f 1f31 703f cf07 ce3e 72a7 84bd
000002e0: 0c52 843c b316 313f daaa 3a3f 3984 fa3e
000002f0: e894 ae3e c985 2b3f ed6d 453f 72a8 703f
00000300: 9632 61bf 6c42 593f dddb 723f b395 4bbd
00000310: b2f9 843b a142 6cbd 7030 d0bd 449e 5b3f
00000320: a2c2 923f 8a17 1e3f 28e2 b63e fbdb 963f
00000330: ef65 78bf 3184 223f f179 e7be 3bf8 a43f
00000340: e17b 1e3b 6e8c 4fbe e149 113e 2a8b 35be
00000350: ef30 bd3e d9fe 473f 709d 253f 950d 4cbe
00000360: c86b 32bf 313e 273f cbde 823f 43e3 90bf
00000370: 42ed f43e d050 4c3f 208f cd3e c3cc 553f
00000380: a5d2 e43e d063 203e 1521 90be 7653 61be
00000390: 8a72 483f 2ab1 523f 670a 7dbe 6704 8d3f
000003a0: 3199 a43d 7cb6 dd3d c8de 123f 40f9 193f
000003b0: 2142 1b3f d36a 0b3f 3a3b a23e a1fc 8b3f
000003c0: 226f 8d3f 5a1b 6d3f 28f0 613e 3c2c 4e3f
000003d0: c2e4 9c3e dc5d 83bf 52a2 aa3f a287 723f
000003e0: e8b7 a13f 0d88 ffbe 9f45 c03d 0cbf f9be
000003f0: 823e 9a3f b911 6f3f 37a5 f3be 7392 cc3e

std.constant5 f4 [128]
0.22202685 -0.61562395 -0.033445396 -0.8659991 -0.23680623 0.0448334 -0.5224509 -0.9853841
0.2238492 0.10015753 -0.20110206 -0.3817765 0.10702949 0.15038686 0.2169787 0.5495877
-0.055253696 0.67477614 -0.7415822 0.3108622 0.10667431 0.1719926 0.07355847 -0.12240244
0.108459674 0.3596996 0.023997625 -0.74895436 -0.0882448 -0.27173218 -1.2717098 -1.3404272
0.4226087 -0.15825053 0.34493506 -1.0090647 -0.68212396 0.2607155 -0.027596653 0.023082582
0.31927708 1.2601948 0.41972622 0.62363917 -0.11210641 -0.36246768 -0.80406314 -0.2903712
0.2842664 0.04129412 0.60475254 0.05582144 0.24130744 0.36876577 0.40918702 0.1683542
0.41770637 -0.13614407 0.45235592 -0.032028936 -0.5840192 0.07744882 -0.51187634 0.41260242
-0.62577254 -0.28660035 0.2181004 -0.89501065 -0.60429317 -0.68706715 0.44821754 -0.18907535
0.39406297 0.5573008 -0.18772906 -1.1358789 -0.04850546 -0.6037024 0.034295946 -0.48330963
0.05538627 0.6015943 0.56157535 0.4769092 0.5036725 -0.8114126 -0.98450416 -0.29053366
0.09128231 0.6072776 -0.1207516 -0.40287176 -0.7469202 -0.8001221 -0.6409302 0.6613591
0.60503036 0.032213636 -0.13095045 -0.39213037 0.1669636 -0.047437854 -0.1899796 -0.47375536
-0.23140544 -0.9299754 -0.09706403 -0.19831449 0.9583062 -0.017489467 0.37254676 -0.43282306
0.15736218 0.37138286 -0.32214287 -0.37396157 -0.4650986 0.45501986 -0.8578709 0.5326898
-0.0042952737 0.35091513 0.43319166 0.40032512 0.23992325 0.4446232 -0.09155571 0.030273814
00000000: 025b 633e 8899 1dbf 0afe 08bd 1eb2 5dbf
00000010: 557d 72be 3aa3 373d 58bf 05bf 2242 7cbf
00000020: ba38 653e 641f cd3d b3ed 4dbe 3678 c3be
00000030: 4732 db3d 03ff 193e aa2f 5e3e c8b1 0c3f
00000040: b351 62bd 21be 2c3f 55d8 3dbf 5529 9f3e
00000050: 1078 da3d d41e 303e d3a5 963d 21ae fabd
00000060: 1b20 de3d 8c2a b83e ab96 c43c 79bb 3fbf
00000070: b1b9 b4bd 7b20 8bbe 63c7 a2bf 1e93 abbf
00000080: 2b60 d83e 6d0c 22be 549b b03e 0829 81bf
00000090: ad9f 2ebf 817c 853e 6012 e2bc af17 bd3c
000000a0: 4978 a33e 104e a13f 5be6 d63e d1a6 1f3f
000000b0: 0c98 e5bd 5d95 b9be 15d7 4dbf 89ab 94be
000000c0: 5e8b 913e 0624 293d 10d1 1a3f 06a5 643d
000000d0: 4c19 773e dece bc3e f680 d13e 0b65 2c3e
000000e0: 9cdd d53e 5a69 0bbe 329b e73e c630 03bd
000000f0: 4882 15bf 7d9d 9e3d 540a 03bf a040 d33e
00000100: a132 20bf 48bd 92be b655 5f3e 6b1f 65bf
00000110: f5b2 1abf a2e3 2fbf c57c e53e f89c 41be
00000120: 9fc2 c93e 44ab 0e3f 0c3c 40be 7b64 91bf
00000130: a9ad 46bd 3e8c 1abf e879 0c3d 5c74 f7be
00000140: b7dc 623d 1602 1a3f 67c3 0f3f 712d f43e
00000150: aef0 003f bcb8 4fbf 7708 7cbf d4c0 94be
00000160: 38f2 ba3d 8b76 1b3f 9d4c f7bd 3545 cebe
00000170: 2a36 3fbf cdd4 4cbf 0014 24bf d44e 293f
00000180: 45e3 1a3f 72f2 033d e017 06be 50c5 c8be
00000190: 82f8 2a3e 324e 42bd 038a 42be 1090 f2be
000001a0: 8cf5 6cbe de12 6ebf 82c9 c6bd f412 4bbe
000001b0: 8e53 753f 1246 8fbc 73be be3e fc9a ddbe
000001c0: 8d23 213e e525 be3e e9ef a4be e477 bfbe
000001d0: 6721 eebe 5df8 e83e 6d9d 5bbf 5c5e 083f
000001e0: 5ebf 8cbb 26ab b33e 4ccb dd3e 6af7 cc3e
000001f0: 71ae 753e a7a5 e33e 8f81 bbbd ca00 f83c

;;conv2d/bias;; f4 [16]
-0.37110928 -0.41616744 -0.18830422 -0.4457194 -0.16451947 -0.14831936 -0.26314378 -0.5739441
-0.3296433 -0.37443292 -0.13610718 -0.33337557 -0.5023103 -0.04995954 -0.2645812 0.15164453
00000000: 0902 bebe e613 d5be d2d2 40be 5535 e4be
00000010: cb77 28be 08e1 17be c8ba 86be 00ee 12bf
00000020: 02c7 a8be acb5 bfbe ae5f 0bbe 34b0 aabe
00000030: 6897 00bf 60a2 4cbd 3077 87be b448 1b3e

;;conv2d_1/bias;;; f4 [32]
-0.31927222 0.8683566 -0.054019686 -0.11335814 -0.026896747 -0.30327117 0.63392556 -0.04977827
-0.22302614 -0.05999382 0.24505188 -0.10339101 0.49186724 -0.58763236 -0.14550538 0.62870985
-0.5545796 0.5668401 -0.020903297 0.05884437 0.28280646 0.00050560804 -0.20585606 -0.18451297
0.16796282 0.60255116 0.65489495 -0.24907902 0.23816176 0.15464854 0.32443094 -0.35327816
00000000: a677 a3be 9e4c 5e3f bf43 5dbd 5028 e8bd
00000010: 9156 dcbc 5c46 9bbe f248 223f 4de4 4bbd
00000020: f760 64be 14bc 75bd e1ee 7a3e aabe d3bd
00000030: 06d6 fb3e 136f 16bf 5dff 14be 21f3 203f
00000040: eef8 0dbf 6f1c 113f 643d abbc cb06 713d
00000050: 02cc 903e c88a 043a eecb 52be f8f0 3cbe
00000060: 72fe 2b3e cb40 1a3f 32a7 273f 920e 7fbe
00000070: ade0 733e 305c 1e3e d01b a63e e0e0 b4be

;;conv2d_2/bias;; f4 [32]
0.24817069 0.4966018 0.20160192 0.14021674 0.24830724 0.18015926 0.18031777 0.43089423
0.49767306 0.6642746 0.048035342 -0.17617756 0.0010555275 0.49053946 0.57433265 0.59912354
0.09559257 0.5561905 -0.00031315675 0.092264384 1.0683035 -0.2445422 0.16977555 0.0067255013
0.83236843 0.504468 0.034598216 0.47040135 0.7303134 0.21594405 0.9795523 0.3521686
00000000: 7520 7e3e 9742 fe3e bc70 4e3e fa94 0f3e
00000010: 4144 7e3e ab7b 383e 39a5 383e 2b9e dc3e
00000020: 01cf fe3e e60d 2a3f b5c0 443d e467 34be
00000030: a059 8a3a fd27 fb3e 7707 133f 2960 193f
00000040: 0ac6 c33d 8062 0e3f 302f a4b9 1cf5 bc3d
00000050: 2bbe 883f 4569 7abe a4d9 2d3e 9861 dc3b
00000060: 1916 553f d124 013f dcb6 0d3d 72d8 f03e
00000070: d2f5 3a3f 7020 5d3e f1c3 7a3f 714f b43e

;;conv2d_3/bias;;; f4 [64]
0.45364588 0.16895662 0.12478155 0.6557263 0.30455324 -0.26165602 0.20130186 0.3815459
0.45275867 0.21081401 0.54380643 0.55628926 0.13767219 -0.2570957 -0.06862139 0.27113298
0.1098637 0.036061026 0.557874 0.7452634 0.13534082 0.2086186 -0.16257772 0.044430003
0.23209696 0.29406592 0.057250205 -0.09004167 -0.07687205 0.60374594 0.31626388 -0.27310035
-0.23229085 0.36234587 0.22086008 0.14623691 0.35364103 -0.049638297 -0.23230115 0.3535158
-0.27589506 0.25424588 -0.69519144 0.060113125 0.48306572 0.031061858 0.2622178 0.14475213
0.19584422 0.26821533 0.22105774 0.47612336 0.054471616 0.026971035 0.04991043 -0.52760315
0.30648786 0.13025977 -0.12079023 -0.0234077 -0.22581938 0.07418842 0.31634697 0.26639855
00000000: 4644 e83e f702 2d3e 788d ff3d aedd 273f
00000010: 67ee 9b3e c7f7 85be 1322 4e3e fc59 c33e
00000020: fccf e73e a1df 573e e636 0b3f f968 0e3f
00000030: f0f9 0c3e 0ca2 83be 5f89 8cbd f1d1 8a3e
00000040: 3800 e13d bab4 133d d5d0 0e3f 95c9 3e3f
00000050: c996 0a3e 1da0 553e c67a 26be 3cfc 353d
00000060: d3aa 6d3e cf8f 963e 317f 6a3d c467 b8bd
00000070: 186f 9dbd 188f 1a3f 57ed a13e cfd3 8bbe
00000080: a7dd 6dbe 6685 b93e 2529 623e 21bf 153e
00000090: 7010 b53e 8751 4bbd 5ae0 6dbe 0600 b53e
000000a0: 1e42 8dbe 842c 823e 11f8 31bf 2e39 763d
000000b0: 6454 f73e 7075 fe3c 6941 863e e739 143e
000000c0: 638b 483e 8553 893e f65c 623e 71c6 f33e
000000d0: a11d 5f3d 5cf2 dc3c e16e 4c3d 0011 07bf
000000e0: faeb 9c3e d162 053e de60 f7bd 81c1 bfbc
000000f0: 323d 67be 19f0 973d 3bf8 a13e 6465 883e

;;conv2d_4/bias;; f4 [64]
0.13317375 -0.32104316 -0.0039515905 -0.3494299 -0.090900816 0.1683147 0.024521433 -0.021615459
-0.17935982 0.01989117 -0.13685696 -0.6779039 -0.07162851 -0.24994095 -0.45481473 -0.24011338
0.011988621 0.053654067 -0.12932727 -0.17835692 -0.16157886 -0.087150425 -0.05249467 -0.20998344
-0.5255493 -0.07439234 0.047412086 -0.24938703 -0.08031789 -0.041451864 -0.09877207 -0.0073148706
-0.08292764 -0.38258886 0.09972769 0.280474 -0.05637582 -0.09040253 -0.20406488 -0.10366569
0.052208554 -0.34321332 -0.58239657 0.061356183 0.0985422 -0.025461175 -0.7229909 -0.3794042
-0.161174 0.15636936 -0.26320526 -0.11973029 -0.07721663 -0.33130032 -0.09993404 0.121565185
-0.1658147 -0.07134773 -0.18121736 0.09200217 0.093248926 -0.016718391 -0.099530384 -0.09043392
00000000: b35e 083e c55f a4be 587c 81bb 7ae8 b2be
00000010: 352a babd b05a 2c3e 2ce1 c83c e712 b1bc
00000020: 1aaa 37be cff2 a23c 3b24 0cbe 1c8b 2dbf
00000030: f8b1 92bd 85f0 7fbe 7add e8be 48e0 75be
00000040: ec6b 443c 5ec4 5b3d 5e6e 04be 32a3 36be
00000050: ee74 25be ec7b b2bd a704 57bd e605 57be
00000060: 668a 06bf 035b 98bd 2d33 423d 505f 7fbe
00000070: b57d a4bd 6ec9 29bd 0349 cabd 95b1 efbb
00000080: f7d5 a9bd b0e2 c3be 083e cc3d 4a9a 8f3e
00000090: 55ea 66bd f624 b9bd 62f6 50be ad4e d4bd
000000a0: a3d8 553d a8b9 afbe f117 15bf 9f50 7b3d
000000b0: 7ed0 c93d f493 d0bc ee15 39bf 4441 c2be
000000c0: cc0a 25be 4a1f 203e d7c2 86be 2735 f5bd
000000d0: c123 9ebd 32a0 a9be 38aa ccbd 2bf7 f83d
000000e0: 54cb 29be c21e 92bd 0b91 39be a26b bc3d
000000f0: 4bf9 be3d 02f5 88bc 96d6 cbbd 6b35 b9bd

std.constant8 f4 [15, 128]
-0.36915302 -0.40618274 0.14875844 0.1805193 0.12093238 0.17360899 0.1843206 0.13908385
0.18087523 -0.32329336 0.054114766 -0.38374674 0.004273452 -0.005746978 0.23961753 -0.22708336
0.09207643 -0.016136793 -0.20602177 -0.37556383 0.14603944 0.17724289 0.067144334 0.08644811
-0.09298848 -0.30578935 0.040420577 -0.13409218 -0.3633836 -0.33410037 -0.07461581 -0.49655905
-0.380803 0.12703574 -0.27859053 0.14441377 -0.16443871 0.23588118 -0.29780903 0.098242
0.2314599 -0.35250556 -0.18588181 -0.048365038 0.12450374 -0.11168125 -0.42847902 0.16682218
-0.30895203 -0.05005655 -0.29481837 -0.20575802 0.1475879 0.2592997 0.15116152 -0.3001943
0.14864156 -0.25580633 -0.30237678 0.11675553 -0.4446412 0.09971171 0.211883 0.1662373
0.19494303 0.09632191 -0.27060962 -0.42972103 0.096425 0.1772997 0.18862897 -0.40596792
0.09247705 0.1917204 -0.54209864 -0.22553784 0.19505621 -0.47523686 0.21183537 -0.4703573
-0.07410866 0.071880065 -0.34942105 -0.4708581 -0.41600809 -0.15339008 0.0056103794 -0.20757967
0.2199031 0.13580956 -0.061297864 -0.12038041 -0.1808283 -0.3326784 -0.24124429 0.17773122
-0.020980796 0.013334808 0.12930588 0.21627448 -0.29725143 0.28784397 -0.09387301 0.1953093
-0.5179085 -0.07321069 0.04219004 0.20756072 0.12829994 -0.09063341 -0.39536902 -0.4901273
0.1235725 -0.5126544 -0.25628138 -0.23572238 -0.17898555 0.20372847 0.16413581 -0.34536815
0.1774971 0.2467695 -0.2681035 -0.33823738 0.15565626 -0.24631311 -0.5611442 0.15590373
0.1610619 -0.13275386 0.2070927 0.18027502 -0.45818505 -0.28162545 0.18109809 0.22795062
-0.2671632 0.14898747 0.016173976 -0.32433358 -0.39858454 -0.09711048 0.2985818 -0.69512904
-0.52280235 0.21472679 -0.2165925 -0.3529383 -0.20325604 0.2052702 0.12805589 0.07770573
-0.41061872 0.232729 -0.41277346 -0.19749631 -0.026909616 0.16196139 0.13049233 -0.33475152
0.14487414 -0.63668746 0.070461586 -0.4401597 0.24163745 -0.24183637 0.19706905 -0.60031444
0.11073075 -0.68169695 -0.008529074 0.1229488 -0.2546161 0.12913306 -0.4658691 -0.4026082
0.16129635 -0.26111642 -0.2197553 -0.08724948 0.13823968 -0.31867626 -0.462573 -0.42120904
-0.5925363 -0.6238772 0.1599453 0.23974866 -0.36645332 0.19314444 0.25914016 -0.2335597
0.14626795 -0.28239343 0.2618913 0.24438708 0.19971254 0.2858968 -0.39384064 -0.3908565
-0.3544088 -0.35457832 0.010502408 -0.44581428 0.14909989 0.19462863 0.12246081 -0.36690578
-0.63694715 0.2025731 0.1151698 0.18839113 0.12948443 -0.33093297 0.14333127 -0.13955423
-0.27077693 -0.18599653 -0.351233 -0.020999193 0.25983474 -0.063074514 0.23689362 -0.34730867
-0.41508067 0.12628211 0.21563081 0.21228078 0.18736105 -0.29230943 0.3678779 -0.24936844
-0.48408076 0.24252586 -0.1505375 0.04065908 -0.40091038 0.19877508 0.24303402 0.08305127
0.17379637 0.18650521 -0.1587758 -0.5097494 -0.17503847 0.28817818 0.06141884 -0.33706626
-0.4082838 -0.24399562 0.16199952 0.20125985 0.127606 -0.4839144 0.27056593 -0.45115095
00000000: a001 bdbe 2ff7 cfbe 2254 183e 0dda 383e
00000010: 65ab f73d 8ec6 313e 8abe 3c3e ff6b 0e3e
00000020: 5b37 393e b586 a5be 72a7 5d3d 747a c4be
00000030: 5008 8c3b 2551 bcbb 4c5e 753e 8a88 68be
00000040: 9192 bc3d 4f31 84bc 5ff7 52be e749 c0be
00000050: 5d8b 153e 297f 353e f882 893d b50b b13d
00000060: bf70 bebd 6c90 9cbe 0c90 253d 764f 09be
00000070: 6a0d babe 340f abbe 2cd0 98bd fd3c febe
00000080: 9cf8 c2be a815 023e 6ba3 8ebe 34e1 133e
00000090: 9f62 28be d68a 713e 6d7a 98be 1a33 c93d
000000a0: d303 6d3e 9c7b b4be cd57 3ebe 6b1a 46bd
000000b0: d1fb fe3d 24b9 e4bd 9a61 dbbe 6fd3 2a3e
000000c0: f62e 9ebe 1908 4dbd 6ff2 96be 3bb2 52be
000000d0: 4821 173e eec2 843e 16ca 1a3e 11b3 99be
000000e0: 7e35 183e 0cf9 82be 21d1 9abe 861d ef3d
000000f0: 03a8 e3be a735 cc3d dbf7 583e 1c3a 2a3e
00000100: 259f 473e 6c44 c53d 588d 8abe 6504 dcbe
00000110: 787a c53d 0d8e 353e f427 413e 07db cfbe
00000120: 9c64 bd3d 5a52 443e fac6 0abf 64f3 66be
00000130: d1bc 473e 3f52 f3be 5feb 583e acd2 f0be
00000140: 48c6 97bd db35 933d 51e7 b2be 5014 f1be
00000150: 03ff d4be 4a12 1dbe 46d7 b73b c48f 54be
00000160: 472e 613e a911 0b3e 7813 7bbd 018a f6bd
00000170: 0e2b 39be d354 aabe be08 77be 2cff 353e
00000180: ebdf abbc 3d7a 5a3c c368 043e 0f77 5d3e
00000190: 5731 98be 4960 933e 7e40 c0bd 29ff 473e
000001a0: a795 04bf 7cef 95bd 77cf 2c3d cc8a 543e
000001b0: 0f61 033e 029e b9bd cf6d cabe f7f1 fabe
000001c0: 9413 fd3d 523d 03bf 5037 83be 3561 71be
000001d0: fd47 37be 329e 503e 3813 283e 18d4 b0be
000001e0: cdc1 353e 25b1 7c3e dd44 89be 732d adbe
000001f0: 5b64 1f3e 8139 7cbe 25a7 0fbf 3aa5 1f3e
00000200: 69ed 243e a1f0 07be 1c10 543e 049a 383e
00000210: 3b97 eabe 3631 90be c771 393e e36b 693e
00000220: 9dc9 88be 2c90 183e 497f 843c 0d0f a6be
00000230: 4613 ccbe dce1 c6bd b7df 983e faf3 31bf
00000240: 60d6 05bf 57e1 5b3e 6dca 5dbe 54b4 b4be
00000250: 5a22 50be 5a32 523e 1521 033e 2f24 9f3d
00000260: 9e3c d2be 8350 6e3e 0b57 d3be 793c 4abe
00000270: 8e71 dcbc 35d9 253e c89f 053e 8d64 abbe
00000280: e359 143e f3fd 22bf 2a4e 903d 9d5c e1be
00000290: cf6f 773e f4a3 77be 78cc 493e 35ae 19bf
000002a0: cec6 e23d b183 2ebf 87bd 0bbc 95cc fb3d
000002b0: 0b5d 82be 753b 043e 6586 eebe a922 cebe
000002c0: df2a 253e 0db1 85be 8907 61be dbaf b2bd
000002d0: b48e 0d3e 8929 a3be 5ed6 ecbe b6a8 d7be
000002e0: 75b0 17bf 6bb6 1fbf b3c8 233e ac80 753e
000002f0: c59f bbbe a8c7 453e 05ae 843e 462a 6fbe
00000300: 44c7 153e df95 90be 9e16 863e 9b40 7a3e
00000310: 7281 4c3e 1161 923e 7ba5 c9be 581e c8be
00000320: 1275 b5be 4a8b b5be 4b12 2c3c c541 e4be
00000330: a4ad 183e ba4c 473e bccc fa3d 13db bbbe
00000340: f80e 23bf 536f 4f3e 25de eb3d 9be9 403e
00000350: 9197 043e 0c70 a9be 6fc5 123e 4ee7 0ebe
00000360: 46a3 8abe e075 3ebe d0d4 b3be 8006 acbc
00000370: 0f09 853e 362d 81bd 3e94 723e 71d2 b1be
00000380: 7485 d4be 1950 013e 53ce 5c3e 2260 593e
00000390: 93db 3f3e 95a9 95be 7e5a bc3e 715a 7fbe
000003a0: 6fd9 f7be b358 783e 8126 1abe 238a 263d
000003b0: 2044 cdbe b28b 4b3e e9dd 783e c916 aa3d
000003c0: adf7 313e 39fb 3e3e 2096 22be f07e 02bf
000003d0: 493d 33be 178c 933e 5292 7b3d f393 acbe
000003e0: 930a d1be fdd9 79be 34e3 253e 1017 4e3e
000003f0: 26ab 023e a1c3 f7be 9e87 8a3e 42fd e6be

std.constant9 f4 [16, 3, 3, 1]
-1.3292049 -0.26167732 1.1943232 -0.75264364 0.53457755 0.49218467 -0.5362324 -0.17219882
1.0063524 -0.120585516 0.14828575 0.45917338 -0.2891735 0.36578053 0.5186019 -0.18123004
0.14694189 -0.051238433 0.13793491 0.2941092 0.58128506 -0.60022855 -0.75401837 -0.17409182
0.11384291 -0.35743013 -0.122666575 0.4330457 -0.4682864 -1.4317856 -0.29347837 1.1378633
-0.31489757 -0.24778698 1.6671516 0.057919163 -0.5323148 1.3522637 -1.0570598 1.2897162
0.057246357 -1.1868342 1.5922271 -0.05348665 -1.2789091 0.9573123 0.0890135 2.0138454
-0.4224424 0.3036998 0.16579412 -0.3154224 -1.6814675 -0.69189936 0.031539407 1.4338661
1.2773461 0.30965376 0.523296 0.24310698 -0.19936891 -1.4507037 -1.3973808 -0.7637505
0.41021746 0.82181925 0.08235033 0.76922303 -0.43189645 0.59540725 0.24529178 -0.7055721
0.987542 -0.1471888 -1.072733 1.2504307 0.05529352 -0.95336115 0.96370745 -0.09723412
-0.4259621 -0.5199174 0.0639499 0.13187692 -1.4491457 0.0248088 1.2452495 -0.82779634
-0.26102138 1.8672706 -1.2517406 -0.8020373 -0.6717336 0.5830684 -0.4688703 0.2757291
1.460143 0.8051179 0.62773323 -0.3102777 -0.5885962 0.505351 -0.528561 -0.28521308
1.1823406 -0.7910217 0.81782866 0.4807902 0.05232404 0.67327726 0.59113836 0.07208835
0.28961408 0.3337667 0.033225182 -0.38016495 -0.48224604 1.1543548 0.23634379 -0.7099698
0.022959765 -0.84969556 -1.0108188 1.1266129 0.4462382 -0.8093143 -0.45097622 -1.5745763
-0.7530436 -0.03615064 -0.08380907 0.5536886 0.27154452 1.1835023 1.6044736 0.7439347
-0.5640677 1.0912519 0.5922201 0.050617844 -0.3882414 -0.89861214 -1.3082857 0.11937921
00000000: 6323 aabf 92fa 85be 95df 983f 41ad 40bf
00000010: 13da 083f a1ff fb3e 8746 09bf e354 30be
00000020: 28d0 803f 8af5 f6bd 38d8 173e c618 eb3e
00000030: 8d0e 94be 9647 bb3e 18c3 043f 5e94 39be
00000040: ef77 163e 64df 51bd cf3e 0d3e 7b95 963e
00000050: 19cf 143f 94a8 19bf 5907 41bf 2045 32be
00000060: 7926 e93d 1501 b7be 9d38 fbbd 2ab8 dd3e
00000070: 3cc3 efbe c044 b7bf cc42 96be 81a5 913f
00000080: 413a a1be dfbb 7dbe 3965 d53f a53c 6d3d
00000090: c845 08bf fa16 ad3f bc4d 87bf 6c15 a53f
000000a0: 287b 6a3d 2fea 97bf 19ce cb3f d114 5bbd
000000b0: 4bb3 a3bf 6b12 753f b64c b63d d8e2 0040
000000c0: 5f4a d8be 8a7e 9b3e efc5 293e 0b7f a1be
000000d0: 543a d7bf 5120 31bf 772f 013d ed88 b73f
000000e0: 1480 a33f f08a 9e3e baf6 053f 09f1 783e
000000f0: 5d27 4cbe a9b0 b9bf 60dd b2bf 2785 43bf
00000100: 0608 d23e bf62 523f 4aa7 a83d cdeb 443f
00000110: 8821 ddbe 9c6c 183f c52d 7b3e 60a0 34bf
00000120: 8dcf 7c3f a9b8 16be 514f 89bf 1d0e a03f
00000130: 757b 623d 7a0f 74bf 88b5 763f af22 c7bd
00000140: b417 dabe 4f19 05bf 2af8 823d be0a 073e
00000150: 9b7d b9bf d33b cb3c 5664 9f3f 76ea 53bf
00000160: 98a4 85be b902 ef3f 0939 a0bf 5152 4dbf
00000170: bcf6 2bbf f843 153f c50f f0be 5d2c 8d3e
00000180: f7e5 ba3f 351c 4e3f 20b3 203f b8dc 9ebe
00000190: 3eae 16bf af5e 013f c64f 07bf 7307 92be
000001a0: f056 973f 6680 4abf 385d 513f 222a f63e
000001b0: bc51 563d e65b 2c3f d854 173f 0fa3 933d
000001c0: 4c48 943e 78e3 aa3e 2117 083d fba4 c2be
000001d0: f4e8 f6be e6c1 933f 1b04 723e 95c0 35bf
000001e0: 1e16 bc3c a685 59bf 8362 81bf da34 903f
000001f0: 5579 e43e 392f 4fbf 5be6 e6be b78b c9bf
00000200: 77c7 40bf b212 14bd 17a4 abbd 89be 0d3f
00000210: e207 8b3e 017d 973f 645f cd3f 8172 3e3f
00000220: be66 10bf 24ae 8b3f bd9b 173f a854 4f3d
00000230: 94c7 c6be 720b 66bf e875 a7bf 167d f43d

std.constant10 f4 [32, 3, 3, 16]
0.014058049 -0.0030263006 -0.060597114 -0.111976825 -0.10544532 0.07482426 0.15806653 0.010381748
-0.1577696 -0.024273518 -0.052543424 0.041265037 0.060695507 -0.022952523 -0.035173927 0.08174038
0.018811869 0.0014750069 0.050236642 0.1490312 0.0028186159 0.08586107 0.10648979 -0.004044616
0.028054163 0.033372384 0.032988396 0.044793848 0.0633483 -0.004654671 0.019790726 0.018375654
-0.082727656 -0.023611277 0.039395534 -0.012553969 0.042238843 -0.083127715 -0.071822114 -0.009907411
0.08446657 -0.12288225 0.069628224 -0.057949886 0.039498672 0.080423765 0.019120954 -0.04621327
-0.0064828205 -0.020514093 0.0040480946 -0.16667858 -0.10508284 0.06992752 -0.012351981 -0.020791475
-0.08539888 0.0017961576 -0.0626636 0.02520816 -0.054602437 -0.05079324 -0.080270015 0.028605454
0.039110072 0.029416252 0.009868148 -0.0046623573 -0.07321937 0.092577346 0.022272844 0.0009214051
-0.04696919 0.012534123 0.026579533 0.02870088 0.015697932 -0.077469535 0.008895568 0.015720207
-0.056619793 -0.0222539 0.020869521 0.10057188 0.0075998595 -0.05699012 -0.011233797 -0.023341335
0.01007507 0.0026398415 0.10177453 0.012618957 -0.019243592 -0.01988892 0.024626292 0.012005947
-0.041519154 -0.10152495 0.06127201 -0.1289806 -0.043404125 -0.016775437 -0.02364581 -0.093060285
-0.066387 -0.06760344 -0.07746089 -0.038709484 -0.052754637 0.044776946 -0.11749435 0.07457108
-0.0011442656 0.009138065 0.030977601 -0.10947656 -0.16223012 0.02530902 0.009298888 -0.087356806
-0.15979567 0.05064445 -0.083020195 -0.027445482 -0.045512967 -0.1007593 -0.04377007 0.09530177
0.06687359 0.08761968 -0.04421794 -0.0043844106 -0.019209918 0.027609577 0.0008408374 -0.04240418
-0.04070596 0.109286696 0.017550686 0.081655204 -0.032319207 -0.07560566 0.021506097 -0.038588405
-0.00253221 -0.016920052 -0.07480505 -0.20906202 -0.05997405 -0.04718103 -0.06878019 -0.012895238
0.0033586863 0.0015659292 -0.1653337 0.028002381 -0.019830601 -0.016562836 -0.1192555 -0.06946185
0.022676742 0.003490607 -0.031731345 -0.017715717 0.040819895 -0.0023744109 -0.017671896 0.075676076
0.03920603 0.0018937646 -0.0353347 0.033037644 0.07710444 -0.001634882 -0.06105361 -0.016966442
-0.058403194 -0.023227522 -0.08795574 -0.10287574 0.032108605 -0.026153816 0.07230496 0.004255317
0.028488293 -0.094330646 -0.10194667 -0.064947665 0.09834141 0.004788616 -0.16546522 -0.06798773
-0.011841118 -0.031931758 -0.063122965 -0.15035324 -0.05688979 -0.0026940592 -0.06699024 -0.012269064
-0.032733552 -0.091140725 -0.084657535 -0.015559674 -0.0225248 -0.040380966 -0.12081766 -0.03837037
-0.030267099 -0.00624596 -0.0062165796 -0.04338344 -0.001519216 -0.006076907 -0.046526343 -0.00020447283
0.01951329 -0.008714039 -0.10501562 -0.041418076 -0.044951614 -0.024561143 -0.035248216 0.018466178
-0.04089437 -0.06969185 -0.061593246 0.027426755 -0.0002826475 -0.097907 -0.03633381 -0.046447072
-0.010754774 -0.07474266 0.0010578996 -0.06659184 -0.038905848 0.031712357 0.011397619 -0.06463171
-0.045253024 -0.038747344 -0.052583102 -0.046737045 -0.0098535335 -0.20178957 -0.10643547 0.021769524
0.022666588 -0.03616151 0.007583998 -0.00027014277 -0.046479747 0.030935397 0.053372063 -0.12007466
00000000: bb53 663c e654 46bb ae34 78bd 1b54 e5bd
00000010: b7f3 d7bd 763d 993d 31dc 213e 3518 2a3c
00000020: 5b8e 21be 42d9 c6bc c637 57bd 8705 293d
00000030: da9b 783d ee06 bcbc 8912 10bd 8067 a73d
00000040: 591b 9a3c 0555 c13a f0c4 4d3d a39b 183e
00000050: 87b8 383b eed7 af3d 5217 da3d b388 84bb
00000060: d8d1 e53c 7bb1 083d d71e 073d c179 373d
00000070: c1bc 813d 3686 98bb 2920 a23c 8a88 963c
00000080: 1e6d a9bd 706c c1bc 365d 213d 2aaf 4dbc
00000090: a302 2d3d dd3e aabd 7917 93bd b252 22bc
000000a0: cffc ac3d b0a9 fbbd 3e99 8e3d dc5c 6dbd
000000b0: 5cc9 213d 37b5 a43d 8ca3 9c3c 204a 3dbd
000000c0: d76d d4bb 2c0d a8bc e1a5 843b caad 2abe
000000d0: ac35 d7bd 2936 8f3d f75f 4abc e252 aabc
000000e0: 9ce5 aebd 0c6d eb3a c655 80bd 5881 ce3c
000000f0: cea6 5fbd 930c 50bd 9b64 a4bd fc55 ea3c
00000100: e231 203d 5afa f03c 03ae 213c b0c6 98bb
00000110: 09f4 95bd 3199 bd3d 8a75 b63c 738a 713a
00000120: c462 40bd ec5b 4d3c 52bd d93c 1c1e eb3c
00000130: f398 803c 59a8 9ebd b7be 113c aac7 803c
00000140: 28ea 67bd d04d b6bc 8ff6 aa3c a1f8 cd3d
00000150: 3e08 f93b 796e 69bd f60d 38bc 5436 bfbc
00000160: e811 253c 3101 2d3b 2a6f d03d bebf 4e3c
00000170: bda4 9dbc 17ee a2bc 14bd c93c 97b4 443c
00000180: fd0f 2abd 50ec cfbd 5cf8 7a3d 7e13 04be
00000190: 86c8 31bd a46c 89bc dcb4 c1bc 6496 bebd
000001a0: e8f5 87bd ac73 8abd d1a3 9ebd d68d 1ebd
000001b0: 3f15 58bd 0868 373d e1a0 f0bd b9b8 983d
000001c0: 2ffb 95ba d3b7 153c bdc4 fd3c 3f35 e0bd
000001d0: a71f 26be dd54 cf3c 5d5a 183c 20e8 b2bd
000001e0: 7aa1 23be 8e70 4f3d 7e06 aabd 59d5 e0bc
000001f0: ce6b 3abd e45a cebd 3f48 33bd 932d c33d
00000200: 05f5 883d f271 b33d df1d 35bd 1aab 8fbb
00000210: 1e5e 9dbc 7b2d e23c a56b 5c3a 01b0 2dbd
00000220: 4bbb 26bd b4d1 df3d 75c6 8f3c d83a a73d
00000230: 2561 04bd 24d7 9abd 8e2d b03c e00e 1ebd
00000240: 6ff3 25bb ec9b 8abc 6433 99bd 5b14 56be
00000250: 59a7 75bd e540 41bd a1dc 8cbd 8c46 53bc
00000260: 681d 5c3b dd3f cd3a 3d4d 29be 4065 e53c
00000270: c973 a2bc c9ae 87bc 3a3c f4bd 0442 8ebd
00000280: 93c4 b93c abc2 643b baf8 01bd 8d20 91bc
00000290: c332 273d 019c 1bbb a7c4 90bc 0ffc 9a3d
000002a0: 8196 203d 3238 f83a 1ebb 10bd 7b52 073d
000002b0: efe8 9d3d 8949 d6ba 5a13 7abd 35fd 8abc
000002c0: 3038 6fbd a547 bebc 2422 b4bd 84b0 d2bd
000002d0: 5084 033d 8740 d6bc 9f14 943d 3070 8b3b
000002e0: 4860 e93c 6d30 c1bd 6ac9 d0bd 4803 85bd
000002f0: 3967 c93d d3e9 9c3b b76f 29be 273d 8bbd
00000300: 4001 42bc e0ca 02bd 9d46 81bd 33f6 19be
00000310: 4505 69bd d08e 30bb 2e32 89bd 2f04 49bc
00000320: 9e13 06bd fda7 babd ee60 adbd 01ee 7ebc
00000330: ee85 b8bc 8366 25bd 406f f7bd 402a 1dbd
00000340: b5f2 f7bc e9aa ccbb 73b4 cbbb d5b2 31bd
00000350: 6e20 c7ba ca20 c7bb 6892 3ebd c267 56b9
00000360: 56da 9f3c 54c5 0ebc 6e12 d7bd 00a6 29bd
00000370: 2f1f 38bd 7334 c9bc 6f60 10bd 6246 973c
00000380: db80 27bd 9aba 8ebd 3349 7cbd 13ae e03c
00000390: 4e30 94b9 7783 c8bd c3d2 14bd 493f 3ebd
000003a0: cb34 30bc ae12 99bd 38a9 8a3a 4d61 88bd
000003b0: bd5b 1fbd d1e4 013d 14bd 3a3c a15d 84bd
000003c0: 3c5b 39bd 89b5 1ebd 6161 57bd 586f 3fbd
000003d0: b770 21bc eda1 4ebe d7fa d9bd 0056 b23c
000003e0: 48af b93c 171e 14bd 3083 f83b f3a1 8db9
000003f0: 8c61 3ebd 3b6c fd3c aa9c 5a3d b4e9 f5bd

std.constant11 f4 [32, 3, 3, 32]
-0.052593824 0.013113467 -0.024215985 -0.035423804 0.0013295476 -0.02754334 0.025691668 -0.031239925
-0.0774294 -0.09704503 -0.018613424 -0.07345372 0.012293171 -0.15743734 -0.105496384 -0.009812906
-0.03861888 0.01834998 -0.07849656 -0.032058984 -0.025674539 -0.033224635 -0.099149026 -0.049848348
-0.022746094 0.02782382 0.005976277 -0.020285506 0.035712082 -0.014521199 -0.020158181 -0.12228336
0.020864114 -0.0149944415 -0.011122861 0.026675241 -0.012586468 -0.042837653 0.011526141 0.046352096
-0.0082444 0.06594751 0.002914175 -0.023479719 0.015016424 0.0089054145 0.016694797 -0.028590703
0.04321354 0.013974784 0.028743569 -0.009742311 0.028218733 0.008466698 -0.016352994 -0.01900303
-0.0056363447 -0.017112155 -0.0031260196 0.017894082 -0.004124256 0.012859444 -0.019362152 0.0077360435
-0.0023110195 -0.015495182 -0.050935205 0.09273553 -0.012961289 -0.026710985 0.001082749 0.05902062
0.022771612 -0.037837982 0.0214748 -0.035891168 -0.019699207 0.018546388 0.031733956 -0.020962171
0.014429541 0.061044186 -0.019139066 -0.039359268 -0.11958263 -0.0025732256 0.0045695202 -0.100913234
-0.006503768 -0.02122499 -0.05024313 -0.19259433 0.0627401 0.050684612 0.008290117 0.04264156
-0.058997087 -0.019316291 0.05562233 -0.028734958 -0.09579363 0.004712989 0.028372318 -0.08889184
-0.039577916 -0.04644946 -0.043603484 -0.09607317 0.013200778 -0.09876705 -0.033175208 0.035688926
0.02225904 0.055258807 -0.026508864 -0.07832436 -0.0076095643 -0.06845892 -0.09246739 0.01855829
-0.010320467 0.06817532 0.07257123 -0.004175451 0.015934529 -0.022351347 -0.023957483 -0.020166574
-0.025394054 0.036532283 0.02039323 -0.023126092 -0.021190066 0.036538698 -0.057097133 -0.024467934
-0.041796513 -0.0068056015 -0.0018478085 -0.035197876 0.039536662 -0.07697268 0.00814639 0.00046870275
-0.009789797 0.005412146 -0.023100413 -0.0049260673 0.011769689 -0.016489133 -0.029827101 0.013048219
-0.0030973773 0.019546011 -0.01034423 0.058314234 0.0034716653 -0.025777444 -0.017185194 3.421783e-05
0.022557655 -0.021928472 -0.026692027 0.047713667 0.04248864 0.01635586 0.008560675 0.048780605
0.056923665 -0.012322197 0.010082674 -0.011140899 0.013121345 0.050977226 0.015012886 0.0032282562
-0.002613595 -0.0061459956 0.07501199 -0.02710654 -0.11028243 -0.08519911 -0.00091049995 -0.054641705
0.035765916 -0.067762814 0.017474808 -0.20598845 0.033762883 0.0815384 -0.046159755 -0.0034246983
-0.041741673 0.050202105 0.0506036 -0.05242719 -0.054381147 0.029418783 -0.013995306 -0.042060908
-0.109813385 -0.11357223 -0.122062355 -0.0143469935 0.058824986 -0.09887936 -0.07830862 0.04170507
-0.0070648454 0.0017533575 0.034786813 0.004834487 0.0075415075 -0.0032791328 0.020021144 0.040304277
-0.06408066 0.049919542 0.071365476 0.045434415 0.011175895 -0.058166485 0.0013421365 -0.014623392
0.036949586 -0.010852139 -0.025984045 -0.013528536 -0.038409952 -0.01954846 0.03032095 -0.013506938
-0.031772923 -0.011543771 -0.028585318 -0.023549538 0.036861442 -0.060845222 -0.034187414 0.06393649
0.01594588 -0.014946299 0.025753438 -0.042443693 0.02838089 -0.001982916 -0.04072178 -0.04573779
0.009026141 0.0045024105 0.016201384 -0.013884473 -0.00080076413 0.012321677 -0.018943498 -0.00830716
00000000: 9f6c 57bd ded9 563c 9a60 c6bc 8d18 11bd
00000010: 3744 ae3a 92a2 e1bc 5577 d23c dfea ffbc
00000020: 4e93 9ebd 8bbf c6bd 2e7b 98bc e76e 96bd
00000030: 4c69 493c 4137 21be 7d0e d8bd 50c6 20bc
00000040: d52e 1ebd b252 963c cec2 a0bd 4850 03bd
00000050: 6953 d2bc 8e16 08bd a50e cbbd c82d 4cbd
00000060: 0456 babc c8ee e33c a5d4 c33b ca2d a6bc
00000070: d546 123d 53ea 6dbc c522 a5bc b36f fabd
00000080: 38eb aa3c 3fab 75bc a93c 36bc 0986 da3c
00000090: 7937 4ebc 8976 2fbd 24d8 3c3c b2db 3d3d
000000a0: 8513 07bc 7d0f 873d befb 3e3b 8a58 c0bc
000000b0: 7207 763c 04e8 113c 87c3 883c 0d37 eabc
000000c0: ae00 313d 7ef6 643c a277 eb3c 379e 1fbc
000000d0: f92a e73c e8b7 0a3c b7f6 85bc 3eac 9bbc
000000e0: 16b1 b8bb ca2e 8cbc e8dd 4cbb 9c96 923c
000000f0: c424 87bb 6bb0 523c 609d 9ebc a37e fd3b
00000100: 7974 17bb 81df 7dbc 6fa1 50bd 20ec bd3d
00000110: 965b 54bc ffd0 dabc 07eb 8d3a 9bbf 713d
00000120: 888b ba3c 00fc 1abd ebeb af3c 9e02 13bd
00000130: 3b60 a1bc 98ee 973c 77fb 013d dcb8 abbc
00000140: e269 6c3c 7809 7a3d 88c9 9cbc 2f37 21bd
00000150: bde7 f4bd 90a3 28bb eabb 953b 99ab cebd
00000160: 8f1d d5bb 08e0 adbc becb 4dbd 7337 45be
00000170: e27d 803d ab9a 4f3d 45d3 073c eba8 2e3d
00000180: eea6 71bd 333d 9ebc 3ed4 633d 9365 ebbc
00000190: 732f c4bd 6b6f 9a3b 106d e83c ed0c b6bd
000001a0: 741c 22bd ca41 3ebd 9199 32bd 03c2 c4bd
000001b0: 1348 583c 6146 cabd bae2 07bd 8d2e 123d
000001c0: 9758 b63c 0f57 623d 1e29 d9bc 8668 a0bd
000001d0: a759 f9bb 3134 8cbd 8b5f bdbd 8e07 983c
000001e0: 2d17 29bc 819f 8b3d 3aa0 943d 39d2 88bb
000001f0: 2189 823c 2c1a b7bc 7c42 c4bc 5f34 a5bc
00000200: 3107 d0bc e0a2 153d b40f a73c ee72 bdbc
00000210: ca96 adbc 9aa9 153d afde 69bd fa70 c8bc
00000220: d232 2bbd 8601 dfbb 2a32 f2ba a62b 10bd
00000230: 32f1 213d daa3 9dbd 7078 053c 38bc f539
00000240: 6265 20bc 5f58 b13b 143d bdbc d96a a1bb
00000250: a7d5 403c 3814 87bc f757 f4bc 32c8 553c
00000260: 5efd 4abb f51e a03c d87a 29bc e8da 6e3d
00000270: e184 633b 382b d3bc f7c7 8cbc 1d85 0f38
00000280: d5ca b83c 57a3 b3bc 3da9 dabc 686f 433d
00000290: 9108 2e3d b9fc 853c 1342 0c3c 2cce 473d
000002a0: ca28 693d 0ae3 49bc cd31 253c 5188 36bc
000002b0: e9fa 563c 7fcd 503d 9cf8 753c 2791 533b
000002c0: d948 2bbb 5964 c9bb e39f 993d 890e debc
000002d0: c1db e1bd df7c aebd 9eae 6eba fbcf 5fbd
000002e0: 487f 123d 3bc7 8abd 5427 8f3c a3ee 52be
000002f0: f34a 0a3d 9bfd a63d 0312 3dbd e770 60bb
00000300: 51f9 2abd b9a0 4d3d b845 4f3d e5bd 56bd
00000310: c4be 5ebd a9ff f03c 914c 65bc 0f48 2cbd
00000320: d7e5 e0bd 8f98 e8bd d4fb f9bd a70f 6bbc
00000330: 78f2 703d 4381 cabd 4560 a0bd efd2 2a3d
00000340: 3880 e7bb ead0 e53a 9e7c 0e3d 9e6a 9e3b
00000350: c01e f73b b8e6 56bb 6203 a43c 1916 253d
00000360: b93c 83bd 6f78 4c3d 1028 923d 7019 3a3d
00000370: 1a1b 373c fb3f 6ebd a1ea af3a f496 6fbc
00000380: 7358 173d 2ccd 31bc 7edc d4bc cba6 5dbc
00000390: c153 1dbd 1824 a0bc a463 f83c 344c 5dbc
000003a0: 5324 02bd 1622 3dbc c22b eabc f6ea c0bc
000003b0: 06fc 163d d738 79bd 1a08 0cbd 22f1 823d
000003c0: efa0 823c 52e1 74bc e0f8 d23c 70d9 2dbd
000003d0: 0a7f e83c cff3 01bb e2cb 26bd 8d57 3bbd
000003e0: 61e2 133c f588 933b c4b8 843c b37b 63bc
000003f0: 5fea 51ba dce0 493c 652f 9bbc c11a 08bc

std.constant12 f4 [64, 3, 3, 32]
0.02393428 0.08509124 -0.08205804 -0.08706813 0.0040534423 -0.014298371 0.0125867175 0.026922796
0.05062487 0.025087012 0.03188715 -0.025748871 0.068713695 0.045907654 -0.070535555 -0.11126357
0.008182926 -0.04582664 0.011798989 -0.0036393278 -0.09657894 -0.043268055 0.021124607 -0.0021642116
0.022592658 -0.042534977 0.0698395 0.04489031 0.042178698 0.017344952 -0.027290296 0.038670134
-0.10393648 -0.048554946 -0.019705871 0.035476595 -0.12458679 -0.019074019 0.029213699 -0.0034076408
0.014481922 0.044068813 -0.18028621 -0.037050627 0.013491911 -0.010274347 0.09037316 0.033606056
-0.08296041 -0.16380543 0.03439491 -0.09518188 -0.12517597 -0.09184078 0.030782843 -0.014686391
-0.06736255 0.01712307 0.059413526 0.08513506 -0.070519686 -0.044229597 0.04419355 -0.03241642
-0.114636876 0.027269244 0.058019444 -0.020281343 -0.17151001 -0.07926901 0.047139566 -0.019866869
0.0055662845 -0.013189929 -0.1416971 -0.054285243 -0.09839048 0.0032801714 0.024993356 -0.0023146528
-0.07503993 -0.06618868 -0.015017173 0.043160476 -0.055357136 -0.03260271 -0.06865724 -0.057411358
0.009212811 0.14309722 0.08450314 0.008464186 0.014636786 -0.027810562 -0.09723933 -0.11519711
0.096827604 0.058788512 -0.014059351 0.07020002 -0.0031705191 -0.014774678 -0.08627838 0.042721376
-0.0780175 -0.07028691 0.098563746 0.08627055 -0.07464053 0.01664098 0.09705563 -0.015080265
0.074916735 0.012789648 0.022814859 0.03159149 -0.054344784 -0.04603431 -0.008556459 0.020487139
0.025358533 -0.045063313 -0.020418597 -0.059433676 0.13807753 0.073481336 -0.011593612 -0.07324888
-0.046817407 -0.12370337 0.016957382 -0.008639824 -0.08571585 -0.042810164 -0.089565694 -0.022160042
-0.012942908 0.070325844 -0.064817056 -0.06495955 0.04789675 -0.024365688 -0.02353983 0.08251066
0.06701563 -0.043316703 0.12187047 -0.032041352 -0.0249082 0.009754142 0.03982293 0.07670372
-0.04637455 -0.037670843 0.07193106 -0.08467912 -0.041736092 -0.02880321 -0.05494252 -0.06782797
0.008828604 0.0012198464 0.041858435 -0.047135234 -0.1291526 -0.0035171523 -0.016560365 -0.07151512
-0.09560315 -0.040023636 -0.19972152 -0.058331117 -0.06738603 -0.032204885 -0.049247626 0.044657357
-0.10232568 0.030514857 -0.04939913 0.027665177 0.08798102 -0.05037124 -0.27503484 -0.046701647
-0.091641165 -0.004521273 0.05293164 -0.047154453 0.06169972 -0.043996144 -0.12628248 -0.09771448
0.031403556 -0.031997345 -0.057520308 -0.052365202 -0.0222534 0.026586972 -0.06556488 0.0072996328
0.008669906 -0.006882237 0.015834777 -0.059807595 0.03702013 -0.08613351 0.02418947 0.08289603
0.0022163203 -0.09178011 0.103528775 0.018746294 -0.082050726 0.073490664 -0.010888208 -0.0576405
0.037688915 0.03000497 0.14425965 -0.058566686 0.070870146 0.044858493 -0.05419106 0.040289424
-0.023079311 -0.20954502 -0.024606055 0.029480023 -0.101795405 -0.027097845 -0.14095241 0.0187288
-0.020249909 0.12936386 -0.0038139087 -0.048967585 -0.09631683 -0.13135421 0.08868077 0.1774817
0.027643947 -0.05476487 0.017541675 -0.037451483 0.020487422 -0.053244986 0.045102544 -0.16830173
-0.0003984797 0.026325038 -0.040664554 0.05212052 -0.1460972 0.0085099125 0.017736714 -0.10054637
00000000: d311 c43c 5144 ae3d 0c0e a8bd c750 b2bd
00000010: bdd2 843b b743 6abc 8538 4e3c 328d dc3c
00000020: 065c 4f3d 4783 cd3c 1a9c 023d 4cef d2bc
00000030: c4b9 8c3d aa09 3c3d f274 90bd 28de e3bd
00000040: ae11 063c b7b4 3bbd 8c50 413c ca81 6ebb
00000050: 2ecb c5bd d839 31bd 830d ad3c 72d5 0dbb
00000060: 3d14 b93c 2839 2ebd 0308 8f3d e7de 373d
00000070: 92c3 2c3d 0017 8e3c e68f dfbc 9364 1e3d
00000080: a6dc d4bd 8de1 46bd 356e a1bc e84f 113d
00000090: 5c27 ffbd 1e41 9cbc 9151 ef3c ba52 5fbb
000000a0: 9545 6d3c 8081 343d f39c 38be 66c2 17bd
000000b0: 2d0d 5d3c bc55 28bc 9015 b93d 81a6 093d
000000c0: 26e7 a9bd 9cbc 27be ade1 0c3d b8ee c2bd
000000d0: 212e 00be 0517 bcbd 4d2c fc3c 309f 70bc
000000e0: 60f5 89bd ae45 8c3c 995b 733d 4a5b ae3d
000000f0: a06c 90bd 182a 35bd 4c04 353d 14c7 04bd
00000100: bdc6 eabd c063 df3c cca5 6d3d 0f25 a6bc
00000110: 52a0 2fbe ca57 a2bd 6b15 413d d8bf a2bc
00000120: 6165 b63b 921a 58bc 0b19 11be 345a 5ebd
00000130: f380 c9bd 25f8 563b debe cc3c 6eb1 17bb
00000140: 89ae 99bd ee8d 87bd 970a 76bc 0ac9 303d
00000150: 2abe 62bd 6b8a 05bd 2b9c 8cbd 2c28 6bbd
00000160: 54f1 163c 1488 123e fb0f ad3d 5fad 0a3c
00000170: 21cf 6f3c fad2 e3bc 6a25 c7bd 76ec ebbd
00000180: 8d4d c63d 39cc 703d 3159 66bc 07c5 8f3d
00000190: 7cc8 4fbb 7e11 72bc b8b2 b0bd 9cfc 2e3d
000001a0: a4c7 9fbd 95f2 8fbd cadb c93d 9dae b03d
000001b0: 22dd 98bd aa52 883c 1ac5 c63d 3713 77bc
000001c0: f26d 993d ac8b 513c 3ae6 ba3c 1466 013d
000001d0: a398 5ebd 798e 3cbd 6430 0cbc a5d4 a73c
000001e0: b3bc cf3c 4f94 38bd e744 a7bc ba70 73bd
000001f0: 3264 0d3e 627d 963d 22f3 3dbc 8203 96bd
00000200: 9cc3 3fbd 3158 fdbd 35ea 8a3c 0c8e 0dbc
00000210: cb8b afbd b659 2fbd 386e b7bd fa88 b5bc
00000220: 7e0e 54bc ff06 903d cebe 84bd 8309 85bd
00000230: 622f 443d 8d9a c7bc 9ad6 c0bc 59fb a83d
00000240: 7e3f 893d db6c 31bd 3a97 f93d cb3d 03bd
00000250: 480c ccbc d6cf 1f3c 5e1d 233d d716 9d3d
00000260: 3df3 3dbd be4c 1abd 9750 933d 3f6c adbd
00000270: 77f3 2abd b6f4 ebbc 680b 61bd 64e9 8abd
00000280: d9a5 103c 41e3 9f3a c073 2b3d e010 41bd
00000290: 9440 04be 0680 66bb 9aa9 87bc 8576 92bd
000002a0: 96cb c3bd d3ef 23bd cc83 4cbe 9cec 6ebd
000002b0: b001 8abd 45e9 03bd e1b7 49bd a2ea 363d
000002c0: 2090 d1bd 4bfa f93c be56 4abd 15a2 e23c
000002d0: 652f b43d 1352 4ebd 5ed1 8cbe 3a4a 3fbd
000002e0: 5dae bbbd 3027 94bb d9ce 583d 0725 41bd
000002f0: d8b8 7c3d 4d35 34bd 3250 01be 871e c8bd
00000300: 04a1 003d a60f 03bd 6a9a 6bbd e57c 56bd
00000310: c34c b6bc eccc d93c e146 86bd c231 ef3b
00000320: 390c 0e3c 6384 e1bb efb7 813c cff8 74bd
00000330: 6ba2 173d c466 b0bd ff28 c63c 65c5 a93d
00000340: af3f 113b 36f7 bbbd e506 d43d d491 993c
00000350: 360a a8bd 4682 963d 7464 32bc 7218 6cbd
00000360: b15f 1a3d fccc f53c cdb8 133e 9fe3 6fbd
00000370: 5e24 913d 8abd 373d 72f7 5dbd 8606 253d
00000380: d310 bdbc f892 56be a392 c9bc 1780 f13c
00000390: 1c7a d0bd 4dfc ddbc d455 10be 246d 993c
000003a0: 23e3 a5bc f677 043e c5f2 79bb 3c92 48bd
000003b0: c241 c5bd b881 06be 439e b53d c3bd 353e
000003c0: 8f75 e23c 2151 60bd 8fb3 8f3c ba66 19bd
000003d0: 3dd5 a73c 6a17 5abd 72bd 383d 4a57 2cbe
000003e0: 0aeb d0b9 9ba7 d73c e08f 26bd 547c 553d
000003f0: 819a 15be 296d 0b3c 964c 913c 41eb cdbd

std.constant13 f4 [64, 3, 3, 64]
0.03820713 0.07575834 0.069325686 0.07520686 0.0051477677 0.053599924 0.06804207 0.037472162
-0.0006547813 0.005756911 -0.061873958 0.010092191 0.09796788 0.026265122 0.05108945 -0.030525815
-0.06739519 -0.062379044 -0.010604718 -0.0989614 -0.055564184 -0.071253486 0.023585372 0.011119454
0.002905647 -0.025640424 -0.043275297 0.009966882 0.054854594 0.062280215 0.054051105 0.04964637
-0.008197228 0.088752784 -0.06116608 -0.046307903 0.0017902177 -0.07952694 0.06521496 0.014817364
0.010093256 -0.03435475 0.09260393 0.093529426 -0.1283073 0.0386259 0.048051313 0.058771305
-0.04950298 0.065942824 0.10698167 0.09798235 -0.028680433 0.013649704 -0.08671421 0.055358145
-0.0003677514 -0.021366285 0.037904672 -0.032970928 -0.03414837 0.018586257 -0.011454197 0.07692979
0.042409442 0.030034576 -0.021995379 0.019695073 0.023208512 0.014068348 -0.024032565 0.08067137
0.10064591 -0.055513695 -0.07204016 -0.056775894 0.018911764 -0.04553874 -0.0032158701 0.07643299
-0.06263475 0.024509905 -0.037998006 -0.02552674 -0.0028819037 0.023571601 -0.17071868 0.10651983
-0.040617846 -0.0075865947 0.06034597 -0.024467912 -0.13270585 -0.12149536 -0.033541165 -0.100020334
-0.015115176 0.018933717 0.06812732 -0.032063417 -0.058196843 -0.047078695 -0.011509031 -0.013925028
-0.06297933 0.01109879 -0.039212618 -0.05191916 0.020506132 -0.06266467 0.019995272 0.06526411
-0.03424062 0.100351185 0.032156304 -0.028171465 -0.052737862 -0.07107203 -0.040507488 -0.039957684
0.11709306 0.12147485 -0.098195486 -0.0016949773 0.124590516 -0.15906073 -0.044199117 0.019254068
0.011956488 0.007090509 -0.042192016 -0.023347711 0.0022797727 -0.02709038 0.007370215 -0.075612694
0.014613731 -0.019466585 0.014417922 -0.027330268 0.060405854 -0.01973842 -0.07865041 0.034956273
-0.019591404 0.022560585 -0.017812487 0.060049362 0.102425344 -0.033859417 0.0036898986 -0.046957772
-0.019549055 -0.011496744 0.06360929 -0.067097425 -0.02181595 0.026616141 0.015208782 0.076174594
-0.03279273 0.024817824 -0.012234014 0.06469835 -0.04735147 -0.0024872299 -0.0054759816 0.00046978178
0.032883275 0.06321086 0.019527799 -0.022715528 0.01291665 0.016249815 -0.055538382 0.06963726
-0.065725885 0.05253515 -0.02181997 -0.027842281 -0.06206376 0.0019094499 -0.022641942 -0.026948
-0.0625797 -0.019576367 0.031793397 -0.14612341 0.034961298 0.038033236 0.08753008 0.084361926
-0.066844776 0.02166537 0.0039387485 -0.027437314 -0.04586673 -0.042452034 -0.0074645006 -0.08107758
-0.026947433 0.06182535 0.013127881 -0.1087659 -0.012554639 -0.036743555 -0.07024249 0.047269683
0.014904762 -0.08059965 0.093281664 -0.032376815 -0.02561061 -0.0013678606 0.014112326 -0.020922698
-0.10648325 -0.017480953 -0.06507157 -0.014301427 -0.011273522 0.037724957 -0.011324828 0.015641822
-0.03731305 -0.124286585 0.015033449 -0.027862038 0.049497243 -0.051761046 -0.06207887 -0.071556695
0.010497643 -0.030797545 0.0543912 0.024479035 0.007997984 -0.015951533 -0.022549197 0.013338872
0.031455394 0.017541004 -0.026782388 0.0824114 0.035168223 -0.048738327 -0.03575652 -0.09063275
0.03171219 -0.0057298923 -0.031806387 -0.07997175 -0.04595005 0.037057254 -0.08787458 0.005990847
00000000: 147f 1c3d 3027 9b3d a0fa 8d3d 0e06 9a3d
00000010: 9bae a83b 988b 5b3d a459 8b3d 697c 193d
00000020: a1a5 2bba 78a4 bc3b 8c6f 7dbd b859 253c
00000030: 62a3 c83d f429 d73c 2c43 513d 4611 fabc
00000040: 7d06 8abd 2b81 7fbd 69bf 2dbc 46ac cabd
00000050: 4597 63bd 59ed 91bd 1c36 c13c 5f2e 363c
00000060: ab6c 3e3b de0b d2bc 7041 31bd 224c 233c
00000070: 36af 603d 8a19 7f3d b164 5d3d fe59 4b3d
00000080: ab4d 06bc 05c4 b53d 4989 7abd 5bad 3dbd
00000090: bda5 ea3a 05df a2bd 6c8f 853d 87c4 723c
000000a0: 2f5e 253c 91b7 0cbd 21a7 bd3d 5b8c bf3d
000000b0: fd62 03be 3136 1e3d 74d1 443d 2eba 703d
000000c0: a3c3 4abd 080d 873d 3519 db3d f8aa c83d
000000d0: 3af3 eabc 02a3 5f3c 3897 b1bd 39bf 623d
000000e0: c2ce c0b9 5908 afbc ee41 1b3d 860c 07bd
000000f0: 29df 0bbd 3542 983c 62aa 3bbc 5e8d 9d3d
00000100: 86b5 2d3d 120b f63c a72f b4bc 9057 a13c
00000110: c71f be3c ee7e 663c f1df c4bc 0837 a53d
00000120: 711f ce3d 5462 63bd cb89 93bd d78d 68bd
00000130: d8ec 9a3c d486 3abd 59c1 52bb e688 9c3d
00000140: a646 80bd ffc8 c83c cca3 1bbd 741d d1bc
00000150: 52de 3cbb 3b19 c13c e1d0 2ebe 1227 da3d
00000160: e65e 26bd f898 f8bb 562d 773d ee70 c8bc
00000170: 0be4 07be 8fd2 f8bd 7662 09bd 76d7 ccbd
00000180: a5a5 77bc e21a 9b3c 5686 8b3d ee54 03bd
00000190: d05f 6ebd 97d5 40bd 6090 3cbc cd25 64bc
000001a0: 4ffb 80bd b3d7 353c 699d 20bd 2fa9 54bd
000001b0: 7afc a73c 5656 80bd 20cd a33c 31a9 853d
000001c0: e43f 0cbd ec84 cd3d 54b6 033d d8c7 e6bc
000001d0: a803 58bd 368e 91bd 2eeb 25bd abaa 23bd
000001e0: 7cce ef3d cec7 f83d b71a c9bd 002a deba
000001f0: 5029 ff3d d1e0 22be 220a 35bd b5ba 9d3c
00000200: 25e5 433c 8057 e83b 89d1 2cbd b343 bfbc
00000210: 3d68 153b a5ec ddbc d881 f13b d4da 9abd
00000220: 6e6e 6f3c 6378 9fbc 2639 6c3c bae3 dfbc
00000230: 216c 773d 78b2 a1bc 7713 a1bd 4f2e 0f3d
00000240: 277e a0bc fad0 b83c 7eeb 91bc 52f6 753d
00000250: 61c4 d13d 2cb0 0abd 3ad2 713b cb56 40bd
00000260: 5725 a0bc d75c 3cbc 9645 823d 606a 89bd
00000270: 5db7 b2bc 180a da3c 412e 793c 6d01 9c3d
00000280: ab51 06bd c04e cb3c 2d71 48bc 9280 843d
00000290: 9df3 41bd cb00 23bb dd6f b3bb 0b4d f639
000002a0: 9db0 063d b274 813d c3f8 9f3c ea15 babc
000002b0: 5ba0 533c 551e 853c 377c 63bd fb9d 8e3d
000002c0: 4b9b 86bd 192f 573d cbbf b2bc 7f15 e4bc
000002d0: 9236 7ebd 8246 fa3a 987b b9bc 0dc2 dcbc
000002e0: c929 80bd 9e5e a0bc cb39 023d 60a1 15be
000002f0: 9433 0f3d bdc8 1b3d f842 b33d f2c5 ac3d
00000300: eae5 88bd 937b b13c 9e10 813b 38c4 e0bc
00000310: c1de 3bbd 2fe2 2dbd c598 f4bb 010c a6bd
00000320: ddc0 dcbc 943c 7d3d 5316 573c a8c0 debd
00000330: f9b1 4dbc 6980 16bd 4bdb 8fbd db9d 413d
00000340: 1a33 743c 6e11 a5bd 750a bf3d 8d9d 04bd
00000350: 58cd d1bc c949 b3ba 6337 673c 1466 abbc
00000360: e413 dabd 3734 8fbc 3e44 85bd 8850 6abc
00000370: 94b4 38bc 7c85 1a3d c58b 39bc 4723 803c
00000380: 92d5 18bd f789 febd db4e 763c ee3e e4bc
00000390: 9fbd 4a3d 6403 54bd 6a46 7ebd 518c 92bd
000003a0: 4efe 2b3c 224b fcbc 4fc9 5e3d 4288 c83c
000003b0: fa09 033c caac 82bc 18b9 b8bc 498b 5a3c
000003c0: 5fd7 003d 27b2 8f3c bd66 dbbc 4fc7 a83d
000003d0: 8e0c 103d d7a1 47bd 6e75 12bd aa9d b9bd
000003e0: a4e4 013d d2c1 bbbb 6a47 02bd 3bc8 a3bd
000003f0: 1f36 3cbd 59c9 173d 96f7 b3bd de4e c43b
